…
Elitism: Keeping top 2 architectures in next generation.
Next Generation: [Arch(conv=2, acc=0.6050, fit=0.5829), Arch(conv=2, acc=0.5830, fit=0.5609), Arch(conv=2, acc=0.0000, fit=0.0000)]

============================================================
FINAL BEST ARCHITECTURE
============================================================
Genes: {'num_conv': 2, 'conv_configs': [{'filters': 64, 'kernel_size': 5}, {'filters': 64, 'kernel_size': 5}], 'pool_type': 'avg', 'activation': 'relu', 'fc_units': 128}
Accuracy: 0.6050
Fitness: 0.5829

Total parameters: 2,206,154

Model architecture:
CNN(
  (features): Sequential(
    (0): Conv2d(3, 64, kernel_size=(5, 5), stride=(1, 1), padding=(2, 2))
    (1): BatchNorm2d(64, eps=1e-05, momentum=0.1, affine=True, track_running_stats=True)
    (2): ReLU(inplace=True)
    (3): Conv2d(64, 64, kernel_size=(5, 5), stride=(1, 1), padding=(2, 2))
    (4): BatchNorm2d(64, eps=1e-05, momentum=0.1, affine=True, track_running_stats=True)
    (5): ReLU(inplace=True)
    (6): AvgPool2d(kernel_size=2, stride=2, padding=0)
  )
  (classifier): Sequential(
    (0): Flatten(start_dim=1, end_dim=-1)
    (1): Linear(in_features=16384, out_features=128, bias=True)
    (2): ReLU(inplace=True)
    (3): Dropout(p=0.5, inplace=False)
    (4): Linear(in_features=128, out_features=10, bias=True)
  )
)
Starting with 3 Population:
[Arch(conv=2, acc=0.0000, fit=0.0000), Arch(conv=1, acc=0.0000, fit=0.0000), Arch(conv=4, acc=0.0000, fit=0.0000)]


============================================================
Generation 1/3
============================================================
Evaluating architecture 1/3... Conv params: 14112, FC params: 2099978
…
Next Generation: [Arch(conv=4, acc=0.6290, fit=0.6290), Arch(conv=2, acc=0.5760, fit=0.5760), Arch(conv=2, acc=0.0000, fit=0.0000)]

============================================================
FINAL BEST ARCHITECTURE
============================================================
Genes: {'num_conv': 4, 'conv_configs': [{'filters': 128, 'kernel_size': 7}, {'filters': 32, 'kernel_size': 5}, {'filters': 32, 'kernel_size': 5}, {'filters': 32, 'kernel_size': 3}], 'pool_type': 'avg', 'activation': 'leaky_relu', 'fc_units': 64}
Accuracy: 0.6370
Fitness: 0.6370

Total parameters: 288,490

Model architecture:
CNN(
  (features): Sequential(
    (0): Conv2d(3, 128, kernel_size=(7, 7), stride=(1, 1), padding=(3, 3))
    (1): BatchNorm2d(128, eps=1e-05, momentum=0.1, affine=True, track_running_stats=True)
    (2): LeakyReLU(negative_slope=0.1, inplace=True)
    (3): Conv2d(128, 32, kernel_size=(5, 5), stride=(1, 1), padding=(2, 2))
    (4): BatchNorm2d(32, eps=1e-05, momentum=0.1, affine=True, track_running_stats=True)
    (5): LeakyReLU(negative_slope=0.1, inplace=True)
    (6): AvgPool2d(kernel_size=2, stride=2, padding=0)
    (7): Conv2d(32, 32, kernel_size=(5, 5), stride=(1, 1), padding=(2, 2))
    (8): BatchNorm2d(32, eps=1e-05, momentum=0.1, affine=True, track_running_stats=True)
    (9): LeakyReLU(negative_slope=0.1, inplace=True)
    (10): Conv2d(32, 32, kernel_size=(3, 3), stride=(1, 1), padding=(1, 1))
    (11): BatchNorm2d(32, eps=1e-05, momentum=0.1, affine=True, track_running_stats=True)
    (12): LeakyReLU(negative_slope=0.1, inplace=True)
    (13): AvgPool2d(kernel_size=2, stride=2, padding=0)
  )
  (classifier): Sequential(
    (0): Flatten(start_dim=1, end_dim=-1)
    (1): Linear(in_features=2048, out_features=64, bias=True)
    (2): ReLU(inplace=True)
    (3): Dropout(p=0.5, inplace=False)
    (4): Linear(in_features=64, out_features=10, bias=True)
  )
)
